model.pt (torch, 20681 bytes, 4 tensors)

encoder.0.weight f4 [64, 6]
0.30502552 -0.003566609 -0.37042633 -0.21415135 0.12846811 -0.37560347 0.04280476 -0.014412875
0.09382412 0.0866946 -0.29129788 -0.048420005 -0.120866954 -0.25918648 -0.0983792 -0.23145685
-0.2912194 0.016838584 0.13653433 0.14128354 0.3398332 -0.23176432 0.29981983 -0.24645235
0.00088183 -0.32950553 -0.11266549 -0.016045712 0.29338324 -0.1217742 -0.21675707 0.18432511
-0.028103678 -0.28491262 -0.1947635 -0.028131614 -0.32946813 0.3931042 -0.23619361 -0.14435476
-0.18820255 -0.07426164 -0.34705943 0.06382656 0.12211713 -0.0665303 0.022610363 0.07979173
0.15079005 -0.22586964 0.19952565 0.094212726 -0.37885126 -0.1585957 -0.3831295 0.3552826
0.020400861 -0.2634551 -0.35262886 -0.10161127 0.39251694 -0.076217666 -0.2565815 -0.30065042
0.06145171 -0.29903933 -0.12497379 0.07283944 0.40511695 0.31521037 0.3077832 0.068125814
-0.33897704 0.083884954 -0.07431138 0.063165955 -0.1891808 -0.11808072 -0.38880998 0.17198579
0.18742807 -0.36943263 -0.33515415 0.11252611 -0.2643341 0.38647148 -0.26152036 -0.18704803
0.34124562 0.02450892 -0.27287078 0.23311111 0.02550355 0.21866907 0.30877417 -0.34600037
0.14219648 0.20929906 0.16389748 -0.2571829 -0.27372876 0.38531053 -0.3012654 0.078376256
-0.22606134 0.08389892 0.1849528 -0.20216706 0.078196466 -0.07480866 0.1199106 -0.36019778
-0.1481941 0.09609385 0.37205082 0.3103 -0.21148644 -0.20803386 -0.30391693 -0.1101646
-0.074139126 0.11836147 0.04132089 0.35031727 -0.09504298 -0.25013146 0.31037807 0.3477017
-0.08113113 0.08621195 0.0877054 -0.34018043 -0.11037612 0.38828704 -0.18480173 0.18959677
0.114548236 -0.09626303 -0.2519182 0.0074475096 -0.08788733 0.12271713 -0.19279705 0.03282637
0.18615572 0.16641474 0.3423933 -0.3318742 0.39602 0.12519297 0.32071605 0.26225448
-0.15720733 -0.33811566 -0.08906122 0.25439823 -0.3025178 0.3632744 0.22942807 -0.35749987
-0.093186386 0.14868967 0.09281106 0.18555765 -0.28510106 -0.39864066 -0.056438427 0.19203942
0.09293687 -0.29950917 0.13279946 0.13324629 0.1717281 -0.38693732 0.16003329 0.24399434
0.08083347 -0.021981403 0.08596292 -0.109374 -0.18021041 0.25419012 -0.33473355 0.21909145
-0.3038288 -0.2840612 0.32826972 0.07689673 -0.06770164 0.2045385 0.14463614 -0.22164789
0.1776541 -0.08689689 -0.13695641 -0.08072791 0.20745529 -0.3669871 -0.042778388 -0.30846646
-0.24643597 0.10329783 -0.15765765 0.2661133 0.03139214 -0.3900548 0.17346975 -0.053953756
0.14686641 0.022963647 -0.21110998 0.19581799 0.23960906 -0.011995541 0.023175301 0.16714087
-0.24566807 0.41555005 -0.31684628 0.31345707 -0.31429726 0.28493506 0.029943485 -0.22087558
0.08246495 -0.2947642 -0.19779983 0.07367335 0.16237658 -0.06652247 -0.17229974 -0.0009391756
-0.15611383 -0.083373755 -0.3429178 0.3272018 0.2991449 -0.08956035 -0.37160012 -0.046076737
-0.2625411 -0.101841666 -0.14159593 0.15742715 -0.39879996 0.06604583 -0.23985632 0.36640698
-0.10095963 0.31544217 0.10354594 -0.19343193 -0.2439221 -0.29351455 -0.13965073 0.16978551
00000000: 4e2c 9c3e c5bd 69bb 85a8 bdbe 7e4a 5bbe
00000010: 258d 033e 194f c0be 0b54 2f3d fb23 6cbc
00000020: dc26 c03d f08c b13d ff24 95be 0e54 46bd
00000030: 1889 f7bd 17b4 84be 097b c9bd 0603 6dbe
00000040: b61a 95be 12f1 893c a8cf 0b3e a2ac 103e
00000050: 9efe ad3e a053 6dbe fc81 993e 015e 7cbe
00000060: 9c2a 673a f3b4 a8be 2abd e6bd 4c72 83bc
00000070: 5436 963e c064 f9bd 91f5 5dbe b9bf 3c3e
00000080: af39 e6bc 11e0 91be 1570 47be 4574 e6bc
00000090: 0cb0 a8be f444 c93e bddc 71be bcd1 13be
000000a0: 2bb8 40be 7d16 98bd c6b1 b1be 80b7 823d
000000b0: 8c18 fa3d 0a41 88bd 5e39 b93c d969 a33d
000000c0: b568 1a3e 5f4a 67be 7450 4c3e 9af2 c03d
000000d0: cbf8 c1be e966 22be 8d29 c4be 9ae7 b53e
000000e0: b51f a73c 96e3 86be c58b b4be 9219 d0bd
000000f0: fbf7 c83e 0218 9cbd a65e 83be daee 99be
00000100: cab4 7b3d af1b 99be 42f2 ffbd d82c 953d
00000110: 7d6b cf3e 4163 a13e c295 9d3e 8c85 8b3d
00000120: 668e adbe e0cb ab3d 9130 98bd 275d 813d
00000130: 9db8 41be 4ed4 f1bd 1a12 c7be 0b1d 303e
00000140: 25ed 3f3e 4626 bdbe 5399 abbe 1774 e63d
00000150: cd56 87be 97df c53e ffe5 85be 8589 3fbe
00000160: bfb7 ae3e eec6 c83c b8b5 8bbe aeb4 6e3e
00000170: d2ec d03c c9ea 5f3e a617 9e3e f626 b1be
00000180: f49b 113e 7e52 563e bed4 273e 7aad 83be
00000190: 2d26 8cbe 6c47 c53e 753f 9abe bb83 a03d
000001a0: a07c 67be 32d3 ab3d 4464 3d3e e204 4fbe
000001b0: 7825 a03d 4835 99bd b093 f53d d86b b8be
000001c0: 32c0 17be dacc c43d 727d be3e a4df 9e3e
000001d0: e78f 58be d406 55be 009b 9bbe fa9d e1bd
000001e0: 41d6 97bd 8067 f23d 1840 293d c95c b33e
000001f0: e5a5 c2bd 3b11 80be e0e9 9e3e f505 b23e
00000200: 1428 a6bd e48f b03d e49e b33d 212c aebe
00000210: e00c e2bd 8fcd c63e aa3c 3dbe a825 423e
00000220: 4498 ea3d 8d25 c5bd 6cfb 80be 3d0a f43b
00000230: 46fe b3bd 1e53 fb3d 976c 45be f274 063d
00000240: 9b9f 3e3e a068 2a3e 2d4e af3e 6aeb a9be
00000250: 22c3 ca3e 9632 003e e534 a43e 3846 863e
00000260: f5fa 20be 7f1d adbe bb65 b6bd 7c40 823e
00000270: 9de3 9abe 1aff b93e 31ef 6a3e 390a b7be
00000280: 81d8 bebd 1b42 183e ba13 be3d d302 3e3e
00000290: c4f8 91be a11a ccbe fb2b 67bd fba5 443e
000002a0: b055 be3d 4459 99be 95fc 073e b771 083e
000002b0: 7ed9 2f3e a61c c6be c4df 233e a7d9 793e
000002c0: 058c a53d 5812 b4bc 540d b03d 7aff dfbd
000002d0: 1489 38be 3525 823e 3262 abbe 8259 603e
000002e0: 738f 9bbe 7870 91be f812 a83e 087c 9d3d
000002f0: 28a7 8abd 8a72 513e 7f1b 143e aaf7 62be
00000300: f5ea 353e fff6 b1bd 4d3e 0cbe ad54 a5bd
00000310: 296f 543e bce5 bbbe 6438 2fbd 51ef 9dbe
00000320: b659 7cbe d08d d33d 0271 21be 0140 883e
00000330: 0b95 003d 43b5 c7be 0ea2 313e 9dfe 5cbd
00000340: 2664 163e 421e bc3c 372d 58be 8384 483e
00000350: 145c 753e f288 44bc 21da bd3c fa26 2b3e
00000360: 6990 7bbe fac2 d43e ad39 a2be 727d a03e
00000370: 92eb a0be 02e3 913e 0a4c f53c 352d 62be
00000380: 62e3 a83d 55eb 96be 0a8c 4abe 0ee2 963d
00000390: 0c46 263e ef3c 88bd 586f 30be 0233 76ba
000003a0: 4edc 1fbe dcbf aabd ec92 afbe ff86 a73e
000003b0: 8529 993e 6b6b b7bd 5f42 bebe f6ba 3cbd
000003c0: c96b 86be 5d92 d0bd 86fe 10be 9534 213e
000003d0: 822f ccbe 0943 873d e59c 75be b299 bb3e
000003e0: ecc3 cebd a381 a13e e50f d43d 0513 46be
000003f0: b7c6 79be 8a47 96be 9a00 0fbe 41dc 2d3e

encoder.0.bias f4 [64]
-0.08157649 0.215305 -0.083353564 0.32718298 0.16413338 -0.00823207 -0.18166268 -0.07738486
-0.3795483 0.3073521 -0.25753772 0.41348198 -0.052905545 0.18701123 0.20535481 -0.4126239
0.16271935 0.21334834 0.08302866 -0.14856422 0.2877446 -0.10824066 0.009697232 0.2138776
0.0017539624 0.09837628 -0.0621514 0.34485 0.015799597 -0.106052324 0.02065685 0.14989695
-0.044836532 0.3503466 0.08993224 -0.013931404 -0.062374834 -0.10690342 0.0889161 0.049680725
-0.09133154 0.1431676 0.13191092 -0.25544268 -0.101320684 -0.22682565 0.055889267 -0.19229552
0.21323179 0.037052702 0.06046995 0.32026193 -0.0010414755 -0.29508737 0.26987326 0.1998428
0.11425077 -0.09379134 0.3223607 0.12311342 0.37735772 0.22896767 0.12568435 -0.34024343
00000000: 9311 a7bd ea78 5c3e 46b5 aabd 8784 a73e
00000010: 9512 283e cedf 06bc c805 3abe f47b 9ebd
00000020: 2854 c2be 415d 9d3e fcdb 83be e9b3 d33e
00000030: 7cb3 58bd df7f 3f3e 8848 523e 7143 d3be
00000040: e79f 263e fd77 5a3e ee0a aa3d 3821 18be
00000050: 4353 933e 47ad ddbd 24e1 1e3c bb02 5b3e
00000060: 36e5 e53a 8179 c93d 7792 7ebd 2e90 b03e
00000070: 286e 813c f631 d9bd 8e38 a93c 967e 193e
00000080: 83a6 37bd a160 b33e 652e b83d 8b40 64bc
00000090: c17c 7fbd 2ef0 dabd a519 b63d 047e 4b3d
000000a0: 080c bbbd 879a 123e a813 073e 62c9 82be
000000b0: 3881 cfbd fc44 68be 25ec 643d 1ee9 44be
000000c0: 6f59 5a3e 93c4 173d 57af 773d 5ff9 a33e
000000d0: 1e82 88ba b115 97be d42c 8a3e 97a3 4c3e
000000e0: 4ffc e93d ad15 c0bd 760c a53e e422 fc3d
000000f0: 0835 c13e 8076 6a3e 66b3 003e 6334 aebe

encoder.2.weight f4 [64, 64]
-0.117455095 -0.111760736 -0.023053482 0.041671786 0.102498986 -0.052941293 -0.0042194873 -0.10860772
-0.121101156 -0.06376962 0.04161538 -0.12586291 0.08107695 -0.113248274 0.0033103216 0.15805659
0.029826552 -0.06495334 0.08940008 -0.082280144 -0.024979547 0.062820554 -0.078352354 0.043561786
-0.09111166 -0.08287306 0.07215153 -0.007930696 0.023772268 -0.020272538 -0.027897552 0.09353911
0.21528496 -0.058763895 -0.0038822861 -0.15017778 -0.1485299 -0.038077503 0.068124086 -0.023263887
0.0980124 0.12849978 0.026534937 -0.08112028 -0.046514057 -0.11035085 0.087979734 0.15447825
0.123680115 -0.034983404 0.084901094 0.05393366 -0.06899956 0.11323118 0.022377059 -0.042671498
0.08706455 0.0063042045 -0.09858758 0.036529854 -0.08985153 -0.14091764 0.1124423 -0.11144177
-0.06677568 0.050124615 3.8042665e-05 -0.08864402 0.017430637 -0.061317623 -0.10758817 -0.050024513
-0.034859493 -0.022107065 -0.04854597 -0.08354955 0.10789321 0.015266538 0.118518755 0.0014877538
-0.05516082 0.099698305 0.12374726 -0.0048756152 0.037508104 -0.06755601 -0.030356843 0.091157794
-0.09037319 -0.05770527 0.094604775 0.045199156 -0.10117062 -0.012630593 0.0679798 -0.08956769
0.05127244 0.041154698 0.1296227 0.100414775 0.08430344 -0.060345694 -0.05827269 -0.09723535
-0.013994202 -0.018423934 0.12226272 -0.10040699 0.13491717 0.072658494 0.11368884 -0.07026009
0.08860566 0.15477689 0.0043430924 0.08417398 0.06504963 -0.047673836 -0.026334256 -0.023093484
0.075109005 -0.05688816 0.060298096 0.045276046 -0.008812338 0.1352461 -0.083493195 0.055667926
0.046551675 -0.03397657 -0.0072978735 0.031382713 -0.04447998 0.11404422 -0.010647386 -0.0651754
-0.059667945 0.058142513 -0.11411393 -0.1044764 0.045839116 -0.11524533 0.03169738 0.022948055
-0.009086683 0.098329596 -0.09127967 0.10318783 -0.08046978 0.008782812 -0.10774937 -0.05409944
0.041794684 0.083092004 0.06610313 0.066143945 0.11142068 0.004954171 -0.05520323 -0.103825174
0.07633894 0.032791894 0.08049195 -0.021547146 -0.018243993 -0.009625807 0.033720076 -0.045203507
-0.05100651 0.12297276 0.11213278 -0.0014805198 0.024183137 -0.10747214 -0.090061724 0.06590982
-0.12164697 -0.014922038 0.016558185 -0.002904188 0.08182964 -0.10996759 -0.047434554 -0.036380075
-0.055646777 -0.014206407 0.036796343 0.003756225 0.038318098 -0.13716997 -0.05764619 0.08501962
0.058818236 0.1132108 -0.06503734 -0.0704516 0.10576074 0.061185375 -0.11948186 0.025549078
-0.1204917 0.07830398 -0.1076213 -0.006778341 -0.0880958 0.10807611 0.042431466 0.062156573
0.08917329 -0.07744676 0.10748708 -0.08614361 0.048400726 0.045467783 0.052757397 0.043153316
-0.12482114 -0.08525731 -0.048647195 -0.03400986 -0.03851128 0.009456549 -0.06468342 0.013544323
0.005057276 -0.036383495 -0.0664189 0.05243263 -0.16106087 0.11311473 0.057717264 0.033773974
-0.0035565346 0.0532763 0.025959592 0.07128671 -0.024530925 0.060475163 0.041666076 0.09844672
-0.097687736 -0.13835028 0.119423494 0.12753926 -0.096854396 0.09992832 0.0008151978 -0.039161187
0.04007484 -0.008860828 0.020547075 0.018675372 0.09913492 -0.14814778 -0.009809191 -0.05244626
00000000: 4c8c f0bd d0e2 e4bd a8da bcbc 09b0 2a3d
00000010: fdea d13d f8d8 58bd a043 8abb b96d debd
00000020: e203 f8bd a699 82bd e474 2a3d 35e2 00be
00000030: ac0b a63d b6ee e7bd fbf1 583b 96d9 213e
00000040: d056 f43c 4206 85bd 6417 b73d 7e82 a8bd
00000050: e8a1 ccbc 10a8 803d 3377 a0bd d86d 323d
00000060: c098 babd 5ab9 a9bd 2ec4 933d c0ef 01bc
00000070: 0fbe c23c 9812 a6bc 6889 e4bc 6f91 bf3d
00000080: a973 5c3e 69b2 70bd f46d 7ebb 34c8 19be
00000090: 3918 18be 28f7 1bbd a484 8b3d e893 bebc
000000a0: baba c83d 7295 033e cc5f d93c 6422 a6bd
000000b0: 8685 3ebd a0ff e1bd b82e b43d 8c2f 1e3e
000000c0: 004c fd3d c24a 0fbd a0e0 ad3d 8be9 5c3d
000000d0: a44f 8dbd c0e5 e73d 1850 b73c 4fc8 2ebd
000000e0: e64e b23d 8093 ce3b 49e8 c9bd 54a0 153d
000000f0: 1404 b8bd b74c 10be 2648 e63d 953b e4bd
00000100: b0c1 88bd 784f 4d3d 0090 1f38 ff8a b5bd
00000110: b2ca 8e3c 3028 7bbd 3057 dcbd 81e6 4cbd
00000120: d4c8 0ebd e019 b5bc 24d8 46bd 071c abbd
00000130: 1ef7 dc3d 8020 7a3c f6b9 f23d bc00 c33a
00000140: 50f0 61bd a02e cc3d 346f fd3d a0c3 9fbb
00000150: 19a2 193d ce5a 8abd eaae f8bc f0b0 ba3d
00000160: 9415 b9bd 5c5c 6cbd 26c0 c13d c022 393d
00000170: 8b32 cfbd 8cf0 4ebc fe38 8b3d 446f b7bd
00000180: 0d03 523d d491 283d d0bb 043e 43a6 cd3d
00000190: 48a7 ac3d 0c2d 77bd 58af 6ebd 5423 c7bd
000001a0: f047 65bc caed 96bc e064 fa3d 2ea2 cdbd
000001b0: ba27 0a3e facd 943d b2d5 e83d 86e4 8fbd
000001c0: e276 b53d d57d 1e3e 8050 8e3b 6863 ac3d
000001d0: be38 853d a445 43bd f0ba d7bc 8c2e bdbc
000001e0: c0d2 993d 8f03 69bd 23fb 763d 6073 393d
000001f0: a061 10bc f47d 0a3e 7bfe aabd 0d04 643d
00000200: f8ac 3e3d 042b 0bbd 0023 efbb 298b 003d
00000210: a430 36bd 0490 e93d 6072 2ebc ae7a 85bd
00000220: 6066 74bd d826 6e3d 90b4 e9bd b9f7 d5bd
00000230: ccc1 3b3d be05 ecbd 1dd5 013d 8ffd bb3c
00000240: 50e0 14bc 0761 c93d d6f0 babd 2454 d33d
00000250: 57cd a4bd c9e5 0f3c b4ab dcbd 6097 5dbd
00000260: e730 2b3d 242c aa3d 1461 873d 7a76 873d
00000270: 8730 e43d 9956 a23b c81c 62bd 4ba2 d4bd
00000280: 9757 9c3d cb50 063d f7d8 a43d a483 b0bc
00000290: 6d74 95bc 90b5 1dbc 101e 0a3d 5027 39bd
000002a0: 34ec 50bd 24d9 fb3d dfa5 e53d 000e c2ba
000002b0: b71b c63c 5a1a dcbd 4872 b8bd bafb 863d
000002c0: 0c22 f9bd 907b 74bc 08a5 873c 3054 3ebb
000002d0: 4c96 a73d b036 e1bd bc4a 42bd 4603 15bd
000002e0: e0ed 63bd fdc1 68bc c3b7 163d 002b 763b
000002f0: 70f3 1c3d 4976 0cbe 691e 6cbd c41e ae3d
00000300: 64eb 703d 10db e73d 4c32 85bd ee48 90bd
00000310: 1699 d83d 849d 7a3d e8b2 f4bd 4d4c d13c
00000320: 5ac4 f6bd d65d a03d 8e68 dcbd d81c debb
00000330: 926b b4bd 0257 dd3d 9ecc 2d3d e497 7e3d
00000340: 7ca0 b63d 689c 9ebd 3022 dc3d 106c b0bd
00000350: d73f 463d 6d3c 3a3d 2418 583d 88c1 303d
00000360: 3aa2 ffbd 629b aebd 4842 47bd ec4d 0bbd
00000370: 01be 1dbd a4ef 1a3c be78 84bd 02e9 5d3c
00000380: 82b7 a53b dc06 15bd a206 88bd 99c3 563d
00000390: 24ed 24be b2a8 e73d f068 6c3d 9456 0a3d
000003a0: c014 69bb 4038 5a3d 36a9 d43c c4fe 913d
000003b0: 14f5 c8bc ceb4 773d 0caa 2a3d 6f9e c93d
000003c0: 8210 c8bd b2ab 0dbe 4e94 f43d a799 023e
000003d0: 995b c6bd 38a7 cc3d 00b3 553a 7b67 20bd
000003e0: 8425 243d 022d 11bc 5752 a83c 18fd 983c
000003f0: 4007 cb3d 0db4 17be bbb6 20bc e4d1 56bd

encoder.2.bias f4 [64]
-0.058466144 0.02691816 -0.16549234 -0.012429737 0.15561235 -0.14628853 -0.10758591 0.066789545
0.08698927 0.05070989 0.07326486 -0.029434629 -0.037624482 0.09475996 -0.012009034 0.0640754
0.017201722 0.108670466 0.059391294 0.0886636 0.054555252 0.00010802684 -0.08245738 0.0007544237
-0.07040056 0.032907065 0.061287608 -0.05889616 -0.06785816 0.1259006 0.1245847 0.14004174
0.12002137 -0.012281387 -0.04607365 -0.013044143 0.061120097 -0.10201545 0.021717282 0.15249369
0.08564877 -0.12067426 0.1537337 0.024512867 -0.059766844 0.002644164 0.1500248 0.03432927
-0.08269002 -0.043749344 0.10290539 -0.0729154 -0.16248104 0.16381343 -0.069256194 -0.05232824
0.13538972 -0.031418394 -0.04990838 -0.16071342 -0.0689708 0.096612796 -0.083379716 0.031625003
00000000: 327a 6fbd 7983 dc3c d376 29be 18a6 4bbc
00000010: d858 1f3e a9cc 15be 0056 dcbd f5c8 883d
00000020: 6e27 b23d 2cb5 4f3d e30b 963d e420 f1bc
00000030: 211c 1abd 8311 c23d 8ac1 44bc f739 833d
00000040: a0ea 8c3c 9f8e de3d 4944 733d 4395 b53d
00000050: 5475 5f3d 788c e238 6adf a8bd 84c4 453a
00000060: 2b2e 90bd 8fc9 063d b708 7b3d 1a3d 71bd
00000070: 38f9 8abd 16ec 003e 4326 ff3d 1a67 0f3e
00000080: c4cd f53d df37 49bc b9b7 3cbd 1ab7 55bc
00000090: 1159 7a3d 7aed d0bd 71e8 b13c 4e27 1c3e
000000a0: 9f68 af3d 1124 f7bd 5e6c 1d3e 35cf c83c
000000b0: 14ce 74bd b649 2d3b 1aa0 193e d99c 0c3d
000000c0: 6359 a9bd 8332 33bd 10c0 d23d ab54 95bd
000000d0: 6e61 26be b5be 273e 31d6 8dbd 2356 56bd
000000e0: 9aa3 0a3e 93b0 00bd bb6c 4cbd 0f92 24be
000000f0: 9040 8dbd eedc c53d fcc2 aabd 3889 013d
